lstm_best_model_weights.pth (torch, 229319 bytes, 10 tensors)

lstm.weight_ih_l0 f4 [256, 24]
0	0xbe18558d	-0.14876385
1	0xbe2ea032	-0.17053297
2	0x3e64300f	0.22283958
3	0x3c4e11f8	0.012577526
4	0xbe13aa93	-0.14420538
5	0xbd474e0b	-0.048658412
6	0x3dee8e80	0.116482735
7	0x3dc2fecb	0.09521254
8	0xbe769e57	-0.2408384
9	0xbea23138	-0.31678176
10	0x3e8e5298	0.2779739
11	0x3e3f8069	0.18701328
12	0x3e6153f4	0.22004682
13	0x3edef545	0.435465
14	0x3e61dd34	0.22057039
15	0x3de3def9	0.11126513
16	0x3e793842	0.24337867
17	0x3d0c6ec6	0.03428533
18	0x3dae9466	0.085243985
19	0x3c92ca6c	0.017918788
20	0x3ce6d152	0.028175984
21	0xbeca49fd	-0.39509574
22	0xbcf6ac6c	-0.030111514
23	0xbcf7eb7e	-0.030263659
24	0xbd1dab1a	-0.038493253
25	0xbd8aeb43	-0.06783154
26	0x3e6eb3d4	0.23310786
27	0x3c9c8307	0.019105447
28	0xbcde560c	-0.02714064
29	0xbd8597c0	-0.06523085
30	0x3ccafabe	0.024777766
31	0x3c935410	0.01798442
32	0x3df9c541	0.12195826
33	0x3d867150	0.065645814
34	0xbdedf1fd	-0.11618421
35	0xbe3c4e00	-0.1838913
36	0x3c6c4aae	0.014422102
37	0x3e56787f	0.20944403
38	0xbdc48fdd	-0.09597752
39	0xbdd69b06	-0.10478787
40	0x3dd198d7	0.1023423
41	0xbcd69e7b	-0.026198616
42	0x3dff9d28	0.12481147
43	0x3d9583ac	0.07300505
44	0xbdee79f1	-0.11644352
45	0xbc83195d	-0.016003305
46	0x3dfcdde0	0.12347007
47	0xbd09040c	-0.033451125
48	0x3dbfd63c	0.09367034
49	0x3db05c0c	0.086113065
50	0x3d9a30c7	0.07528835
51	0x3e109e39	0.14122857
52	0x3d4d8736	0.050177775
53	0x3d0ab0ff	0.033860203
54	0x3e3c1fe9	0.18371548
55	0x3d42fe87	0.047606017
56	0x3ccdc565	0.02511854
57	0xbdba0d14	-0.09084526
58	0xbe2ec2dd	-0.17066522
59	0xbe59cb96	-0.21269068
60	0x3e7bc0f7	0.24585329
61	0x3e0ee7d8	0.13955629
62	0x3e4529e7	0.19254266
63	0x3dab7b49	0.08373124
64	0x3e119063	0.14215235
65	0x3db4fa1b	0.08836766
66	0x3dd8d798	0.10587996
67	0xbd2cb9c5	-0.04216935
68	0x3ea652fc	0.32485187
69	0xbd9e7442	-0.07737018
70	0xbd7f76ba	-0.062369086
71	0x3c72783f	0.014799177
72	0x3e127561	0.14302589
73	0x3e493d61	0.1965232
74	0xbda2bff9	-0.07946772
75	0xbdafe05d	-0.08587716
76	0x3d1ddf54	0.03854306
77	0xbc3d81ee	-0.011566622
78	0xbda48475	-0.08033077
79	0x3d3115d6	0.043233715
80	0xbcae984b	-0.021312853
81	0xbce73f19	-0.02822833
82	0x3de4f71f	0.11179947
83	0x3de3f58e	0.1113082
84	0x3e2efab6	0.17087826
85	0x3dfb2d3a	0.12264486
86	0x3c66c071	0.014083968
87	0x3e75548f	0.23958038
88	0x3e2b5455	0.16731389
89	0xbc26f256	-0.010189613
90	0x3d88d8a4	0.06681946
91	0x3e24f0a2	0.16107419
92	0x3cf5db0e	0.03001168
93	0x3dd84515	0.10560051
94	0x3e4af942	0.19821647
95	0x3ce48693	0.027896201
96	0x3e546e03	0.20745091
97	0x3ea77103	0.3270341
98	0x3dc8065f	0.0976684
99	0x3e9ce6b8	0.30644774
100	0x3ec7a302	0.38991553
101	0x3df7e002	0.12103273
102	0x3d7d35fe	0.06181907
103	0x3dd835ca	0.105571344
104	0x3e812074	0.25220072
105	0xbdce9fd5	-0.10089079
106	0x3e11baae	0.14231369
107	0x3d0dbf2c	0.034606144
108	0xbddeb781	-0.10874844
109	0xbdeae955	-0.11470286
110	0xbe390890	-0.18069673
111	0x3deb6d8a	0.11495502
112	0xbdba2b83	-0.090903305
113	0x3e8899dc	0.26679885
114	0xbc23126d	-0.0099531235
115	0xbb5a13c9	-0.0033275953
116	0x3d12ee6f	0.03587192
117	0xbe0ae49b	-0.13563769
118	0x3e57150a	0.2100412
119	0x3dd751da	0.10513659
120	0xbe0c8de1	-0.13725998
121	0xbb881995	-0.0041534402
122	0x3cc94998	0.024571225
123	0x3dcaafe2	0.09896828
124	0x3daebfc8	0.08532673
125	0x3e3ff9a4	0.18747574
126	0xbcc80c04	-0.024419792
127	0x3e3047e3	0.17214923
128	0xbc92282d	-0.017841423
129	0x3c00e103	0.007866147
130	0xbd1bcbd0	-0.038036168
131	0x3cf065d6	0.029345434
132	0x3ba92bdd	0.0051626996
133	0x3da50808	0.080581725
134	0x3cc16438	0.023607358
135	0x3d7b4262	0.061342604
136	0x3c2722d0	0.010201171
137	0xbd8aa50f	-0.06769764
138	0xbd12c1ac	-0.03582923
139	0x3e3afd00	0.18260574
140	0x3e349c28	0.17637694
141	0xbc35d76e	-0.011098726
142	0x3e57eb58	0.2108587
143	0x3e167bfb	0.14695732
144	0xbddadb77	-0.10686391
145	0xbd56ede7	-0.052472975
146	0x3e4b01d3	0.19824915
147	0x3d99c4be	0.07508229
148	0x3dd20d9c	0.10256502
149	0x3e4120bb	0.18860142
150	0x3e14114d	0.14459725
151	0x3dd37719	0.103254505
152	0x3ddbbc63	0.10729291
153	0xbd923584	-0.071391135
154	0xbd0f52f9	-0.03499124
155	0x3e3d9bd5	0.18516476
156	0x3d8aeac9	0.06783063
157	0x3e8082bb	0.2509974
158	0xbd302d46	-0.043011926
159	0xbe8a206b	-0.26977858
160	0x3d6f6810	0.05844885
161	0x3db41210	0.08792508
162	0x3bea621a	0.007152808
163	0x3d1a15cc	0.037618443
164	0x3d45a8ed	0.048256803
165	0xbd0d8ef5	-0.034560163
166	0x3e65179e	0.2237229
167	0xbb9e78e7	-0.00483619
168	0xbc0a5ff9	-0.008445733
169	0x3e83976c	0.25701463
170	0xbe0cdf89	-0.13757147
171	0xbe05123c	-0.12995237
172	0xbde3dcb1	-0.11126078
173	0x3e22b4de	0.15889308
174	0x3c6d2a2a	0.014475385
175	0x3d94f75d	0.07273743
176	0xbe047d9b	-0.1293854
177	0xbe50ad40	-0.2037859
178	0x3de9a845	0.11409048
179	0xbd1a1508	-0.037617713
180	0xbddae90d	-0.10688982
181	0xbe100f71	-0.1406839
182	0xbe961b20	-0.2931757
183	0xbeb5c890	-0.3550458
184	0xbd1244c6	-0.03571012
185	0xbe1201f7	-0.14258562
186	0x3c88896a	0.016667087
187	0xbd800482	-0.0625086
188	0x3dccbe8a	0.0999728
189	0x3e3adab2	0.18247488
190	0xbd5bf3e2	-0.05369938
191	0xbd386323	-0.04501642
192	0x3d025c06	0.03182604
193	0x3d9545ac	0.072886795
194	0x3e47bc48	0.19505417
195	0xbc3c936d	-0.011509758
196	0x3def9247	0.11697822
197	0x3e22b5bf	0.15889643
198	0x3caed8d7	0.021343632
199	0xbd1135c7	-0.035451677
200	0xbdf6b404	-0.12046054
201	0x3d96714e	0.0734583
202	0x3d312521	0.0432483
203	0x3d1b5acf	0.0379284
204	0x3e024075	0.12719901
205	0x3e516229	0.20447601
206	0x3de209ac	0.11037001
207	0xbe71f254	-0.23627597
208	0x3e1342b6	0.14380917
209	0x3e1b6eaa	0.15178934
210	0xbc619131	-0.0137675265
211	0x3d551ea1	0.052031163
212	0x3dc5e96e	0.09663664
213	0x3e086a52	0.13321808
214	0x3e8b6d96	0.27232045
215	0x3e594550	0.21217847
216	0xbbb8eae7	-0.005643237
217	0x3c99420c	0.018708251
218	0x3d91b16c	0.07113919
219	0x3e7f1388	0.24909794
220	0x3de0ef3e	0.10983132
221	0x3c933181	0.017967941
222	0x3d01febd	0.031737078
223	0xbd88f94f	-0.06688177
224	0x3e8c6f65	0.27428737
225	0xbdfc72c3	-0.123265766
226	0x3de13e3b	0.10998198
227	0x3dab42fe	0.08362387
228	0x3df15faf	0.11785828
229	0xbe2dcbd3	-0.16972284
230	0xbe350620	-0.17678118
231	0xbe746672	-0.23867205
232	0xbde6d267	-0.112706
233	0x3bc7cdf9	0.006097552
234	0x3d43a6cb	0.047766488
235	0x3dbfbe95	0.093625225
236	0x3c4de681	0.012567163
237	0x3cf2dc59	0.029646086
238	0x3d32c41d	0.04364406
239	0x3de55bfc	0.11199185
240	0x3d9fa698	0.07795447
241	0x3da6534a	0.08121355
242	0x3dce07b4	0.10060063
243	0x3c7a166e	0.015264137
244	0xbdb2a664	-0.08723143
245	0x3e70a6d1	0.23501135
246	0xbc97f194	-0.01854781
247	0x3ded0e3a	0.11574979
248	0x3dab8f0a	0.08376892
249	0x3df56ea3	0.11983993
250	0xbd1778aa	-0.03698031
251	0x3d818f55	0.063261665
252	0x3c67c8ac	0.014146965
253	0x3e8ffad8	0.28121066
254	0x3ce697d2	0.028148565
255	0xbe088c58	-0.13334787

lstm.weight_hh_l0 f4 [256, 64]
0	0xbe2b4889	-0.16726889
1	0x3da0ec11	0.07857526
2	0x3dc6e62c	0.097118706
3	0x3e1f3a2a	0.15549532
4	0xbe1ce448	-0.15321457
5	0x3d019757	0.03163847
6	0xbdb41ec0	-0.087949276
7	0x3d8d9b9e	0.06914447
8	0xbc8305aa	-0.015993912
9	0xbe28beb1	-0.16478993
10	0xbe3551d7	-0.17707
11	0x3d91abf1	0.07112873
12	0xbd2e7719	-0.04259405
13	0xbcfaeaaa	-0.030629475
14	0xbba13ca8	-0.004920561
15	0xbd2b2f31	-0.041793052
16	0xbe02071a	-0.12698022
17	0x3d00d85a	0.03145633
18	0x3cffe9f1	0.031239482
19	0xbd17b41f	-0.03703701
20	0x3e44d600	0.1922226
21	0x3c899ca6	0.016798329
22	0xbcf35bb8	-0.02970682
23	0x3dbefd59	0.09325666
24	0x3dbc031d	0.09180281
25	0xbe4c4561	-0.19948341
26	0x3dabfd4f	0.08397924
27	0x3e5de67a	0.21669951
28	0xbd57b0d5	-0.052658875
29	0xbe58c06e	-0.21167156
30	0xbdaef099	-0.08541984
31	0xbe39fddb	-0.18163244
32	0x3e0c45b9	0.13698472
33	0x3dcc5668	0.09977418
34	0xbcaa7153	-0.02080599
35	0xbd8035fb	-0.06260296
36	0xbcd8e9e3	-0.026478713
37	0xbcbb0215	-0.022828141
38	0xbbb30045	-0.0054626786
39	0xbd22962d	-0.039694
40	0xbd777697	-0.06041583
41	0x3e20ba7a	0.15696135
42	0x3d01530c	0.03157334
43	0xbe2b5276	-0.16730675
44	0xbbfb59d4	-0.0076706205
45	0xbe5fa7a9	-0.21841301
46	0xbd3659dd	-0.044519294
47	0x3d7213f3	0.059101056
48	0xbde70fc7	-0.11282306
49	0xbe1b0419	-0.15138282
50	0x3db5cb1a	0.08876629
51	0xbd92d60b	-0.07169732
52	0xbcd23bbc	-0.02566325
53	0xbe3230e3	-0.17401461
54	0xbc3f8556	-0.011689505
55	0x3e0aac9e	0.1354241
56	0x3e0a6a54	0.13517123
57	0x3e54f4cf	0.20796512
58	0xbe0816b7	-0.13289915
59	0x3e088933	0.13333587
60	0x3e069e9e	0.13146445
61	0x3da6dac2	0.081471935
62	0xbe02012c	-0.1269576
63	0x3a308145	0.000673313
64	0x3e0b8194	0.13623649
65	0x3d18d06c	0.03730814
66	0xbd64a6a4	-0.055822983
67	0x3c821190	0.015877515
68	0xbdaf4064	-0.085572034
69	0x3de8b652	0.113629
70	0xbd2e6c24	-0.0425836
71	0x3dc31251	0.09524978
72	0xbd46cea3	-0.048536908
73	0xbdb35893	-0.087571286
74	0x3ca5f560	0.020258605
75	0xbdb16c99	-0.086632915
76	0xbbc89dcb	-0.006122326
77	0x3d698d60	0.05701959
78	0xbe12a045	-0.1431895
79	0x3e173ef4	0.14770108
80	0xbe106ffe	-0.14105222
81	0xbd5f1968	-0.05446759
82	0x3e1c6876	0.15274224
83	0xbe97f095	-0.29675737
84	0xbd37dddd	-0.04488932
85	0x3db30707	0.08741575
86	0xbdcf6470	-0.10126579
87	0x3e6baf50	0.23016095
88	0xbcbdba6d	-0.023160184
89	0xbd95255d	-0.07282517
90	0xbdf54a6a	-0.11977084
91	0x3e888a5d	0.26668063
92	0x3da34151	0.079714425
93	0x3cb42786	0.021991502
94	0x3d157623	0.036489617
95	0x3d6ece51	0.058302227
96	0x3e5a6e4f	0.21331142
97	0x3da1cb4a	0.079001024
98	0x3ca34ec8	0.019935027
99	0xbd5b2351	-0.053500477
100	0xbe461652	-0.19344452
101	0xbd26f14a	-0.040757455
102	0x3d8a708f	0.0675975
103	0xbd85bb63	-0.06529882
104	0xbe40db3a	-0.18833628
105	0x3e282177	0.16419016
106	0x3d55af77	0.05216929
107	0xbe013894	-0.12619239
108	0x3d8417f6	0.06449883
109	0xbd52c6ec	-0.051459238
110	0x3dd15f00	0.10223198
111	0xbe390aab	-0.18070476
112	0xbe195d84	-0.1497708
113	0x3d18caa0	0.037302613
114	0x3db5a7c0	0.088698864
115	0xbdf4e0a6	-0.11956911
116	0x3dbb47e6	0.09144573
117	0xbd22a4da	-0.039707996
118	0x3c31a0c7	0.010841555
119	0xbe3b9c68	-0.18321383
120	0x3bc2aa49	0.0059407097
121	0xbe5dcd2c	-0.21660298
122	0xbd94f827	-0.07273894
123	0xbe3ff026	-0.18743953
124	0xbcc3cc85	-0.023901233
125	0x3de50c3d	0.11183975
126	0xbdab8cad	-0.08376441
127	0x3e791f39	0.24328317
128	0x3e0dd08e	0.13849089
129	0xbc2a6615	-0.010400315
130	0xbd8bd2a2	-0.068272844
131	0x3db43979	0.088000245
132	0x3cfb24ad	0.030657137
133	0xbdaee4f0	-0.0853976
134	0x3de2d8e3	0.11076524
135	0x3da5fc2c	0.081047386
136	0x3d77e582	0.06052161
137	0xbbd61c9d	-0.0065341727
138	0x3e029fcc	0.1275627
139	0xbe820f5f	-0.25402352
140	0xbd6f46ce	-0.058417134
141	0x3d83ee7f	0.06441974
142	0x3c9e86d1	0.019351395
143	0x3ddc5c2f	0.1075977
144	0x3d23fcbc	0.04003595
145	0xbdc89604	-0.09794238
146	0x3e3feb78	0.18742168
147	0xbe3111b7	-0.17291914
148	0xbcae5a50	-0.021283299
149	0xbdd8044e	-0.10547696
150	0xbb841377	-0.0040306407
151	0x3e284af6	0.16434845
152	0xbe9212d9	-0.28530005
153	0x3c26576e	0.010152681
154	0xbe340419	-0.17579688
155	0x3dc4c133	0.09607162
156	0x3cd792f8	0.026315197
157	0xbe3a6a80	-0.18204689
158	0xbe0b6d9a	-0.13616028
159	0x3e952286	0.29127902
160	0xbd44ac4c	-0.048015878
161	0x3d71efb3	0.059066486
162	0x3e0c7d5b	0.13719694
163	0xbdab3d18	-0.08361262
164	0xbe44b160	-0.19208288
165	0xbe3f1a23	-0.18662314
166	0x3de967db	0.11396762
167	0xbe915ecd	-0.2839264
168	0x3dadfc28	0.084953606
169	0x3e12e508	0.14345181
170	0xbe182f0e	-0.148617
171	0x3cad3788	0.021144643
172	0x3dc98a55	0.09840838
173	0x3dcd9669	0.10038454
174	0x3e2f6c67	0.17131196
175	0xbe6ca17d	-0.23108478
176	0xbd162ebe	-0.03666567
177	0xbdc5c048	-0.09655815
178	0x3e8b0801	0.27154544
179	0xbd29a86e	-0.041420393
180	0x3d825045	0.063629664
181	0x3da1bbe0	0.078971624
182	0xbc6ec298	-0.014572762
183	0x3ca4e69e	0.020129498
184	0x3cb699bd	0.022290105
185	0xbd6f9d01	-0.05849934
186	0x3e2db89a	0.16964951
187	0xbe24cb1f	-0.1609311
188	0xbe8f9d56	-0.28049725
189	0x3e08e18c	0.1336729
190	0x3df9f5ae	0.12205063
191	0xbd0c79ab	-0.03429572
192	0x3cb6da57	0.02232091
193	0xbdf15531	-0.11783827
194	0xbde85da5	-0.11345986
195	0xbcfa7d68	-0.030577376
196	0x3e1a0466	0.1504074
197	0x3e12b039	0.14325036
198	0xbbab11e9	-0.005220641
199	0x3de5dedd	0.112241484
200	0x3bea41d2	0.0071489597
201	0xbcb450d9	-0.022011207
202	0x3cf80151	0.030274065
203	0x3d2c9fea	0.042144693
204	0xbd62668b	-0.055273574
205	0x3b4f4c61	0.0031631219
206	0x3e3a8c66	0.1821762
207	0x3dfc86e1	0.123304136
208	0xbd1d81fe	-0.03845405
209	0x3cdd9e5e	0.027053054
210	0x3d85abb8	0.065268934
211	0xbdbb41fc	-0.09143445
212	0xbe2147f2	-0.15750101
213	0xbd1eaa4a	-0.03873662
214	0xbe0a6d4d	-0.13518257
215	0x3e332f84	0.17498595
216	0x3bf71634	0.0075404886
217	0xbda17588	-0.078837454
218	0x3c63321f	0.01386693
219	0x3db49843	0.08818104
220	0xbd852885	-0.06501869
221	0x3d20bb7c	0.0392413
222	0x3c87c185	0.01657177
223	0x3bbfae08	0.0058496036
224	0x3d6234da	0.055226184
225	0x3c28989d	0.010290292
226	0x3e084b7b	0.13310044
227	0xbdbc613a	-0.09198232
228	0xbcd4050b	-0.02588131
229	0xbe2c8bb1	-0.16850163
230	0x3b6814d7	0.0035412812
231	0xbd9c4122	-0.076296106
232	0xbdb3adc4	-0.087733775
233	0x3dbec282	0.09314443
234	0xbcc23fcf	-0.023712067
235	0x3c7ab89e	0.015302805
236	0x3e0d5192	0.13800648
237	0x3e0ee953	0.13956194
238	0xbd68c77c	-0.056830868
239	0xbd88e643	-0.06684544
240	0xbe4d44b3	-0.20045738
241	0xbe3dbaa7	-0.18528233
242	0x3de3b6e2	0.111188665
243	0xbdf15441	-0.11783648
244	0x3c0760d1	0.008262829
245	0x3d09fc33	0.03368778
246	0x3cc4df6c	0.024032317
247	0x3d4eb618	0.050466627
248	0xbe07a9be	-0.13248345
249	0xbe0e2213	-0.13880186
250	0x3e39c0f7	0.18140016
251	0xbd8109c9	-0.063006945
252	0xbe540ea6	-0.20708713
253	0x3e502baf	0.20329164
254	0x3e3a5e31	0.18199994
255	0x3dccd1ac	0.10000929

lstm.bias_ih_l0 f4 [256]
0	0x39cab8ae	0.0003866604
1	0xbc68bc55	-0.014205058
2	0x3b413517	0.0029481107
3	0x3e038dde	0.12847087
4	0x3dd8b0d0	0.10580599
5	0x3dc48af7	0.09596818
6	0x3e1ee559	0.15517177
7	0xbd42bc83	-0.04754306
8	0x3e640428	0.2226721
9	0xbd8e41f3	-0.069461726
10	0xbdc3c9db	-0.09559985
11	0x3db9e97a	0.09077735
12	0x3e0482fb	0.1294059
13	0x3dc9b783	0.09849455
14	0x3d356a62	0.044290908
15	0xbcdf7662	-0.027278129
16	0x3dca1f26	0.09869222
17	0x3e3f023c	0.18653196
18	0x3d16cf1a	0.0368186
19	0x3dc1b1c5	0.09457735
20	0x3e1aa170	0.15100646
21	0xbdcbe065	-0.09954909
22	0x3e24c8f3	0.16092281
23	0x3dd28610	0.10279477
24	0xbda5a21c	-0.080875605
25	0x3c96b96e	0.018398967
26	0xbd4e9076	-0.050430737
27	0x3e250743	0.16116051
28	0x3d5c1aa7	0.053736355
29	0x3e1f0c8e	0.15532133
30	0xbd4ec173	-0.050477456
31	0x3e106a6e	0.141031
32	0x3e7fbf45	0.24975307
33	0x3dbb5c26	0.09148435
34	0x3e300b80	0.17191887
35	0x3dd50116	0.10400598
36	0xbcb68d99	-0.022284316
37	0xbe1c0df9	-0.15239705
38	0x3e5620f9	0.20911016
39	0x3d7585d0	0.059942067
40	0x3e46ccdd	0.19414087
41	0x3db71488	0.08939463
42	0x3e276ea9	0.16350807
43	0xbb1553fa	-0.002278565
44	0x3e125050	0.1428845
45	0xbbbc985c	-0.0057554673
46	0x3d573d8c	0.05254893
47	0xbc3efdb5	-0.011657168
48	0xbd45c9d4	-0.04828818
49	0x3e071278	0.13190639
50	0xbc3ff5f9	-0.011716359
51	0x3e435281	0.19074441
52	0xbc38e568	-0.011285163
53	0x3c94ac31	0.018148514
54	0x3ca65a9b	0.020306876
55	0x3d8c13b2	0.06839694
56	0x3c1ffa30	0.009764239
57	0xbe3bbafb	-0.18333046
58	0x3e0b212d	0.13586874
59	0xbd157294	-0.036486223
60	0x3d339bcd	0.043849755
61	0xbd919316	-0.071081325
62	0x3e2520c2	0.16125777
63	0x3d670466	0.05640068
64	0x3d0e9bb2	0.03481645
65	0x3d8e8bf4	0.06960288
66	0xbd849799	-0.064742275
67	0x3ddc61f7	0.10760873
68	0x3d8da6e1	0.06916595
69	0xbe113ea7	-0.14184056
70	0x3ba8a18c	0.005146211
71	0x3e1e7846	0.15475568
72	0xbd278cec	-0.040905878
73	0xbc2e00bb	-0.010620291
74	0xbd4d5db4	-0.05013819
75	0x3e13d086	0.14435014
76	0x3e031080	0.12799263
77	0xbd42db18	-0.047572225
78	0xbe324046	-0.17407331
79	0x3e00a3f8	0.12562549
80	0xbd89f681	-0.0673647
81	0xbe2c6921	-0.16836978
82	0xbdd67c44	-0.104729205
83	0xbd182030	-0.03714007
84	0xbd4777af	-0.048698124
85	0x3d59eaba	0.05320237
86	0x3dfc3eae	0.12316643
87	0x3e1f4ee8	0.15557444
88	0x3d9dd626	0.07706861
89	0x3d81541c	0.06314871
90	0xbd474f6c	-0.048659727
91	0xbc31576d	-0.010824067
92	0x3d114641	0.03546739
93	0xbe0d9fc9	-0.13830484
94	0x3d8730e4	0.06601122
95	0xbdec2ec3	-0.115323566
96	0x3d22bdc9	0.039731774
97	0x3da0d297	0.07852667
98	0x3dbbbc7f	0.09166812
99	0xbced9e0a	-0.029006023
100	0x3e1a3fe9	0.15063442
101	0xbd859834	-0.06523171
102	0x3c7a34fe	0.015271423
103	0x3e3fc41f	0.18727158
104	0xbc912e98	-0.017722413
105	0xbddf8bd6	-0.109153435
106	0x3cfd5279	0.030923115
107	0x3d43ab9a	0.047771074
108	0xbdac43a7	-0.08411341
109	0x3b7c4b75	0.0038497124
110	0xbd56c451	-0.052433316
111	0x3e46cd1d	0.19414182
112	0x3ca0093f	0.019535659
113	0xbbd770b7	-0.006574716
114	0x3db48024	0.088135034
115	0x3de908ad	0.11378608
116	0x3dc46ae4	0.095907
117	0xbdb721c8	-0.0894199
118	0xbcd93adb	-0.026517322
119	0x3d664286	0.056215785
120	0xbe367c67	-0.17820893
121	0xbe0d36e8	-0.13790476
122	0xbe693a51	-0.22776152
123	0x3b447053	0.0029974177
124	0x3e089f44	0.13342005
125	0x3d9d7073	0.076874636
126	0x3d0ce9c5	0.034402627
127	0x3c926e82	0.01787496
128	0xbdea994c	-0.1145502
129	0xbda9dadf	-0.082936995
130	0x3d0bc80b	0.034126323
131	0x3dcfbe30	0.10143697
132	0x3df60580	0.12012768
133	0xbdc71470	-0.09720695
134	0x3e31c577	0.17360483
135	0x3ca1ef84	0.01976753
136	0x3e142f9d	0.14471288
137	0xbb2a5e04	-0.002599598
138	0x3c95faa4	0.018307991
139	0x3e47898d	0.19486065
140	0x3da02482	0.07819463
141	0xbd0a57ee	-0.033775263
142	0xbdb5803f	-0.088623516
143	0x3dfe294c	0.124102205
144	0x3da75382	0.08170225
145	0x3d661f40	0.056182146
146	0xbda19580	-0.07889843
147	0xbbf9fb8b	-0.007628863
148	0x3cbb62b3	0.022874212
149	0xbd8ce4c6	-0.068795726
150	0x3c9b9188	0.018990293
151	0x3d57fe57	0.05273279
152	0xbdb2d477	-0.08731931
153	0x3aae8893	0.0013315849
154	0xbbe06f2e	-0.006849191
155	0xbc62c92a	-0.013841907
156	0xbd57fa48	-0.05272892
157	0x3ccfb443	0.02535451
158	0xbd5cb1dd	-0.05388056
159	0xbb9227bc	-0.004460303
160	0x3cc1d3ff	0.023660658
161	0xbc4ec673	-0.012620556
162	0x3d680ae4	0.05665101
163	0xbdb4141a	-0.087928966
164	0xbd26e371	-0.04074425
165	0x3df0aa09	0.11751182
166	0x3e02613f	0.12732409
167	0x3d2b103a	0.04176352
168	0xbd7c0f63	-0.06153811
169	0x3d30dc1b	0.04317866
170	0xbe29dd94	-0.16588432
171	0x3a018bea	0.00049418083
172	0x3cdd0f38	0.026984796
173	0xbe8cbc69	-0.27487496
174	0xbd4baaae	-0.04972332
175	0x3da310ae	0.07962166
176	0x3d8652a5	0.06558732
177	0xbdd6e758	-0.10493344
178	0x3d5ec90c	0.054390952
179	0xbdc60a60	-0.096699476
180	0xbcceca88	-0.025243059
181	0xbde05aad	-0.10954795
182	0x3d55669c	0.05209981
183	0x3b9241d1	0.0044634123
184	0x3c676aab	0.014124553
185	0x3e21df2e	0.15807793
186	0x3cbb7de9	0.022887187
187	0x3ca0816e	0.019592967
188	0xbcad1a65	-0.02113075
189	0x3e031279	0.12800016
190	0x3b80428b	0.0039141825
191	0x3e156dbb	0.1459264
192	0xbe0e9b87	-0.13926516
193	0xbe228343	-0.15870385
194	0x3e521d56	0.20519003
195	0x3d94a1b1	0.07257403
196	0x3d84e201	0.06488419
197	0x3ddd8452	0.10816254
198	0xbd290c0d	-0.04127126
199	0x3d4ed1c9	0.050493035
200	0x3c318fc4	0.010837499
201	0xbd9294bd	-0.07157276
202	0xbdd03d34	-0.101679236
203	0x3e256309	0.1615106
204	0x3e918b60	0.28426647
205	0xbd279d4e	-0.0409215
206	0x3d1c1a23	0.038110863
207	0x3e29c2d3	0.16578226
208	0x3e56a04f	0.2095959
209	0xbb93a2e5	-0.0045055025
210	0xbe4250d9	-0.18976153
211	0x3e8375a0	0.25675678
212	0x3ba55ade	0.0050462326
213	0xbe89c087	-0.269047
214	0x3e2af463	0.16694789
215	0x3e8aab13	0.27083644
216	0x3d40e0c8	0.047089368
217	0x3cc7f723	0.024409836
218	0xbd4066ca	-0.046973027
219	0x3e23852d	0.15968771
220	0x3d07f0dd	0.03318869
221	0xbd0eed63	-0.03489436
222	0x3dd7c92a	0.10536416
223	0xbd284ea9	-0.04109064
224	0x3d4961fe	0.04916572
225	0x3da4c97d	0.08046243
226	0x3de2e2d0	0.11078417
227	0x3da42435	0.080147184
228	0x3e440fbc	0.19146627
229	0x3dba8617	0.09107607
230	0x3d23b383	0.039966118
231	0xbdf07b3d	-0.11742256
232	0x3e5c0adc	0.21488518
233	0x3e4c5ded	0.19957705
234	0xbd49f5e8	-0.04930678
235	0x3ca9f9d7	0.020749016
236	0x3d562654	0.052282646
237	0x3e4aa380	0.19788933
238	0xbd9a345f	-0.0752952
239	0x3de4e00f	0.11175548
240	0x3e77e307	0.24207698
241	0x3e275f45	0.16344936
242	0x3e218ab9	0.15775575
243	0x3e23cbd2	0.1599572
244	0x3e1b1bd8	0.1514734
245	0x3e159b49	0.14610018
246	0x3d906823	0.070511125
247	0xbd8f5825	-0.06999234
248	0xba9e18a2	-0.0012061785
249	0x3e0df281	0.13862039
250	0x3dd97f36	0.10619967
251	0x3e24b443	0.1608439
252	0x3e3a917e	0.18219563
253	0xbcff19e3	-0.031140273
254	0xbe1f8732	-0.15578917
255	0x3e508c42	0.20366004

lstm.bias_hh_l0 f4 [256]
0	0xbbacd315	-0.0052741864
1	0x3d7c5b57	0.061610546
2	0x3e026471	0.12733628
3	0x3d25cfbd	0.040481318
4	0x3d5047f5	0.050849874
5	0x3e32edd4	0.17473537
6	0xbbe9acc8	-0.007131193
7	0x3dd3a4e0	0.10334182
8	0x3e4693d4	0.1939233
9	0xbcc76128	-0.02433832
10	0xbd07e3c4	-0.0331762
11	0xbd5b6fe9	-0.053573523
12	0x3d5f8a6a	0.05457536
13	0xbdb8f63b	-0.0903134
14	0x3e5dcb39	0.21659555
15	0x3d063e07	0.032773998
16	0xbd8330c4	-0.06405786
17	0xbb2289f8	-0.0024801474
18	0xbe07f126	-0.13275585
19	0x3dc05d6b	0.09392818
20	0x3e588b1c	0.21146816
21	0xbd68e0d5	-0.05685504
22	0x3e3c94bb	0.18416111
23	0x3a2b6c8a	0.0006539306
24	0xbd988f98	-0.07449263
25	0x3c2633a5	0.010144149
26	0x3e2975cc	0.16548842
27	0x3e89e30a	0.2693103
28	0x3e11a380	0.14222527
29	0x3e164758	0.14675653
30	0xbdb64949	-0.08900697
31	0xbb8a799c	-0.0042259227
32	0x3e7f1439	0.24910058
33	0x3e82ae0f	0.2552342
34	0x3e5f32e4	0.21796757
35	0x3e68d798	0.22738492
36	0x3e0badd1	0.13640524
37	0xbe20bbb1	-0.15696599
38	0xbc7b7d4c	-0.015349697
39	0x3e18e68a	0.14931694
40	0x3d399421	0.045307282
41	0x3e2c9b2b	0.16856067
42	0xbd87f7fc	-0.06639096
43	0x3d66977f	0.05629682
44	0x3e1b49a8	0.15164816
45	0x3d910a78	0.07082075
46	0x3d8fb1a0	0.07016301
47	0xbd31ca83	-0.04340602
48	0xbd8fbd45	-0.07018522
49	0x3e9b3f1a	0.3032158
50	0x3e5696dc	0.20955986
51	0x3e707d4b	0.23485295
52	0x3d81e99b	0.06343385
53	0x3cf4f573	0.029902196
54	0x3d9f87a1	0.07789541
55	0xbd58eb3c	-0.052958712
56	0x3e4bd4f7	0.19905458
57	0xbe5ffd91	-0.21874072
58	0x3e5bdf40	0.21471882
59	0x3e1d2d20	0.15349245
60	0x3e30aa7e	0.17252538
61	0x3c633251	0.013866977
62	0x3e8b8ba6	0.2725498
63	0x3ba0c33d	0.0049060867
64	0x3d8324f3	0.06403532
65	0x3e102679	0.14077176
66	0x3d7c16a4	0.06154503
67	0xbbd4ac92	-0.0064902985
68	0x3e0ad3f9	0.13557424
69	0xbe36f07c	-0.17865175
70	0x3e14b7bd	0.14523216
71	0x3de7ce62	0.11318661
72	0x3c317735	0.010831644
73	0xbd8b06a9	-0.0678838
74	0x3d217ccd	0.03942566
75	0x3e0cb7d0	0.13741994
76	0xbca3ddc0	-0.0200032
77	0xbde74e92	-0.11294283
78	0xbe03f276	-0.1288546
79	0x3dd6a7ea	0.10481246
80	0x3d93225b	0.07184287
81	0xbdeb847b	-0.11499878
82	0x3dc015e0	0.09379172
83	0x3e079453	0.13240175
84	0xbc827cea	-0.015928704
85	0x3d6a3632	0.05718059
86	0x3d6344d3	0.055485558
87	0x3e0fbdc7	0.14037238
88	0xbd95a708	-0.07307249
89	0xbdf0d2ed	-0.11758981
90	0xbc10f456	-0.008847317
91	0x3e40fff3	0.18847637
92	0xbe054a3b	-0.13016598
93	0xbdb5b3c8	-0.08872181
94	0x3dced41e	0.10099052
95	0x3cffe485	0.031236896
96	0xbd1656ff	-0.03670406
97	0xbd949d71	-0.07256592
98	0xbdad511b	-0.08462735
99	0x3ded9060	0.11599803
100	0x3e3b28b3	0.18277244
101	0xbda81448	-0.08206993
102	0x3e1307b9	0.14358415
103	0x3cddf218	0.027092978
104	0x3c361224	0.0111127235
105	0x3d783b25	0.06060328
106	0xbd3442b3	-0.04400892
107	0xbda1b8aa	-0.0789655
108	0xbe1c6e04	-0.15276343
109	0x3d8cf690	0.068829656
110	0xbd01c323	-0.031680238
111	0x3e4bbef1	0.19897057
112	0x3d98e3e7	0.07465344
113	0x3dd0f08c	0.10202131
114	0x3dbcd8fd	0.09221075
115	0xbd465351	-0.0484193
116	0x3dc1f804	0.09471133
117	0xbd9d4ec4	-0.07681039
118	0x3e1b6b51	0.15177657
119	0xbcf34587	-0.02969624
120	0xbd531903	-0.051537525
121	0xbe3fee2e	-0.18743202
122	0xbd2ec3f0	-0.04266733
123	0x3db2c64c	0.087292284
124	0xbd9dd309	-0.077062674
125	0x3dd3cb93	0.10341563
126	0xbd507242	-0.050890215
127	0x3d2a9034	0.04164143
128	0x3d9ab33e	0.07553719
129	0x3c9e98f5	0.019360045
130	0xbd4a3a7f	-0.049372192
131	0x3e40fe68	0.18847048
132	0x3ce67abd	0.028134698
133	0xbe4c8ab2	-0.19974783
134	0x3d1617d0	0.036643803
135	0x3e32b4c2	0.17451766
136	0x3d9183ec	0.0710524
137	0xbdf4ea4d	-0.11958752
138	0xbc53e35a	-0.012932623
139	0x3e3a379b	0.18185274
140	0x3d9ff90e	0.07811175
141	0xbd9c6c21	-0.076378115
142	0xbd99dbd7	-0.07512634
143	0xbc51e96d	-0.012812001
144	0x3c8b2cae	0.016989078
145	0x3cd47356	0.025933903
146	0x3c7f76ca	0.015592286
147	0x3da5a84c	0.08088741
148	0xbd8b9e56	-0.068173096
149	0x3cd366f4	0.025805928
150	0xbd03436b	-0.032046717
151	0x3e0502f3	0.12989406
152	0x3ddb15e8	0.10697538
153	0x3d7f43d7	0.062320556
154	0xbe37b7b2	-0.17941168
155	0x3e0ce910	0.13760781
156	0x3debcb70	0.11513412
157	0x3d184d83	0.037183296
158	0xbd9bd971	-0.07609833
159	0xbd34df0f	-0.044158038
160	0x3e434401	0.1906891
161	0x3d1d33f5	0.03837963
162	0xbe2125cd	-0.15737076
163	0x3ce11fe9	0.027481036
164	0x3e003b9d	0.1252274
165	0xbbadc187	-0.0053026113
166	0xbd9ff64a	-0.07810648
167	0x3d7eed56	0.06223806
168	0xbe174577	-0.14772592
169	0xbc54bcbc	-0.012984451
170	0xbe0aef14	-0.13567764
171	0xbdb5f44f	-0.08884489
172	0x3e03e171	0.12878968
173	0xbe330808	-0.17483532
174	0x3deeb073	0.11654749
175	0xbd84a784	-0.064772636
176	0xbda967e5	-0.082717694
177	0xbd0b9b42	-0.034083612
178	0x3e0a411a	0.13501397
179	0xbd49980a	-0.04921726
180	0x3d6ea979	0.05826709
181	0xbd96c091	-0.07360948
182	0x3dbf6ae1	0.093465574
183	0xbdd2c634	-0.102917105
184	0x3dd58397	0.104254894
185	0xbc517959	-0.012785279
186	0xbb9246b0	-0.004463993
187	0xbd033ff8	-0.032043427
188	0xbbe5a1b7	-0.0070078033
189	0x3da8606e	0.082215175
190	0xbdae0cd6	-0.08498542
191	0x3dec224f	0.11529981
192	0xbe7803e3	-0.24220233
193	0xbdff46d4	-0.12464681
194	0x3e17142e	0.14753792
195	0x3da700a7	0.08154421
196	0x3e1d30f8	0.15350711
197	0x3d6b20e8	0.05740443
198	0xbe47253c	-0.19447798
199	0x3e8a7fdb	0.2705067
200	0x3e198674	0.14992696
201	0x3ddd7973	0.1081418
202	0x3ddf2b26	0.10896902
203	0x3deaa4a7	0.11457186
204	0x3dbea8c3	0.093095325
205	0x3d1974b2	0.037464805
206	0x3e2a0691	0.16604067
207	0x3e3d9c85	0.18516739
208	0x3de3ca78	0.11122602
209	0x3dfed9ce	0.12443887
210	0xbe4bc60b	-0.19899766
211	0x3dfcf88c	0.12352094
212	0x3da46f4c	0.08029041
213	0xbdb6a5f1	-0.089183696
214	0x3dadd630	0.08488119
215	0x3e3952ca	0.18097988
216	0x3d8d92f5	0.069127955
217	0x3d0f8737	0.03504106
218	0xbe52a2e5	-0.20569952
219	0x3e2ceac1	0.16886427
220	0x3c9aa39b	0.018876841
221	0xbcbcc1e3	-0.023041671
222	0xbdc9d166	-0.09854393
223	0xbdb5ac92	-0.08870806
224	0x3d735b1c	0.05941306
225	0x3daa3587	0.08310991
226	0x3d9a8881	0.07545567
227	0x3d8b3473	0.06797113
228	0x3dbfc132	0.09363021
229	0x3e20d75d	0.15707155
230	0x3ca01e74	0.019545771
231	0xbe0e92c3	-0.13923173
232	0x3e3777cc	0.17916793
233	0x3db504db	0.08838817
234	0x3e3fea8c	0.18741816
235	0x3c68a723	0.014200005
236	0x3bb0a0fd	0.005390285
237	0x3d2de938	0.042458743
238	0xbe1b7fe4	-0.15185505
239	0x3e28f9c2	0.16501525
240	0x3e029821	0.12753345
241	0x3d812924	0.06306675
242	0x3e72107f	0.23639105
243	0x3d3d4fca	0.04621867
244	0x3e18afba	0.14910784
245	0x3e44c5c7	0.19216071
246	0xbbb81d96	-0.0056187613
247	0xbe916601	-0.28398135
248	0x3dda6fe8	0.10665876
249	0xbd675081	-0.05647326
250	0x3e2f50e6	0.17120704
251	0xbcc07d1b	-0.023497155
252	0x3cf87bbd	0.03033244
253	0xbcd5f6f9	-0.026118742
254	0xbe0b037a	-0.13575545
255	0x3e276cbe	0.16350076

lstm.weight_ih_l1 f4 [256, 64]
0	0x3de21ffb	0.11041256
1	0xbda91398	-0.0825569
2	0xbe7c62f5	-0.24647124
3	0x3dd8f36c	0.10593304
4	0xbd8fe892	-0.07026781
5	0x3de4b377	0.11167043
6	0x3db11e64	0.08648375
7	0x3e84f5b5	0.2596871
8	0x3deef078	0.116669595
9	0xbd3ca12a	-0.046052136
10	0x3e61094a	0.219762
11	0xbddfa0f0	-0.10919368
12	0x3d5a58aa	0.053307213
13	0x3ec9ceae	0.39415497
14	0x3e49cd66	0.1970726
15	0x3e5d5191	0.21613146
16	0xbe8283ba	-0.25491124
17	0x3e09aa0e	0.13443777
18	0x3e8b5b97	0.27218315
19	0xbed7b309	-0.4212878
20	0xbe951cb1	-0.29123452
21	0xbe53cbbe	-0.2068319
22	0xbe5cde51	-0.21569182
23	0x3ed53fe8	0.4165032
24	0xbe709322	-0.23493627
25	0xbce0da22	-0.027447764
26	0x3c5bcd19	0.013415598
27	0x3e6e3c82	0.2326527
28	0xbe4457ae	-0.19174072
29	0x3e0ba8e6	0.13638648
30	0xbe1f43b1	-0.15553166
31	0x3e649c27	0.22325192
32	0xbd32f05a	-0.04368625
33	0x3cc8c3ba	0.024507392
34	0x3e9f0665	0.31059566
35	0xbde1508a	-0.1100169
36	0xbdf46665	-0.11933593
37	0xbea8b7f4	-0.32952845
38	0x3d9278b2	0.07151927
39	0xbe358666	-0.1772705
40	0x3d3feb59	0.046855304
41	0x3e138cb0	0.14409137
42	0xbde2e7f6	-0.11079399
43	0xbe3c1a07	-0.18369304
44	0x3e6f0649	0.23342241
45	0x3d49c10d	0.049256373
46	0x3e5669ea	0.2093884
47	0xbef087ab	-0.46978506
48	0xbe3348d8	-0.17508256
49	0xbdcc6c8c	-0.09981641
50	0x3deb6cbd	0.114953496
51	0xbd905b22	-0.07048632
52	0xbe1842da	-0.14869252
53	0x3e2fc1b5	0.17163737
54	0xbdf6c09e	-0.120484576
55	0xbe065c73	-0.13121204
56	0xbdf78705	-0.120863
57	0xbe8d238f	-0.27566192
58	0x3ea49e95	0.32152238
59	0xbdb8f79b	-0.09031602
60	0xbd5b5d73	-0.053555917
61	0x3e73a1e8	0.23792231
62	0x3e063445	0.13105877
63	0x3e90e67e	0.28300852
64	0xbbe1d7a8	-0.0068921633
65	0xbe93fa06	-0.2890169
66	0xbea53a56	-0.3227107
67	0x3e8a1390	0.2696805
68	0xbd6be0f2	-0.05758757
69	0x3e2fb098	0.17157209
70	0x3ead7c3e	0.33883852
71	0x3e7a5eb1	0.24450184
72	0x3ee84ba8	0.4537022
73	0xbb882ef4	-0.004155988
74	0x3e1ed435	0.15510638
75	0xbe445fa4	-0.19177109
76	0x3e455278	0.1926974
77	0x3e701e0f	0.23448966
78	0x3d05ae0e	0.032636695
79	0x3e3c1d5f	0.18370579
80	0xbe10b91d	-0.14133115
81	0x3e2383a4	0.15968186
82	0x3d439e90	0.04775864
83	0xbe8c6e09	-0.274277
84	0xbe33d721	-0.17562534
85	0xbd0bdd15	-0.034146387
86	0xbd019efe	-0.031645767
87	0x3eb8628c	0.36012685
88	0xbe417a2a	-0.18894258
89	0xbd4de24a	-0.050264634
90	0x3aefd324	0.0018297178
91	0x3ecfcb00	0.40584564
92	0xbe23e087	-0.16003619
93	0x3de7e9d8	0.11323899
94	0xbda9849a	-0.08277245
95	0x3e44061d	0.19142957
96	0x3cfec151	0.03109804
97	0xbd810781	-0.063002594
98	0x3d9980b5	0.07495252
99	0xbdee85e8	-0.11646634
100	0xbddfd9be	-0.10930203
101	0xbe835af5	-0.25655332
102	0x3ec29d85	0.38010803
103	0xbb6a1cda	-0.0035722763
104	0xbd85c521	-0.0653174
105	0x3e889999	0.26679686
106	0xbe7c1f12	-0.24621227
107	0xbd1edf72	-0.038787313
108	0x3d926668	0.07148439
109	0xbc7c90db	-0.015415396
110	0x3e629f27	0.22131024
111	0xbebb6734	-0.36602175
112	0xbe20e9bc	-0.15714163
113	0xbdf81954	-0.12114206
114	0x3e81b009	0.25329617
115	0x3dbe9889	0.093064375
116	0xbdf4d878	-0.11955351
117	0x3eacd71c	0.33757865
118	0xbe091881	-0.13388254
119	0xbdc22b3c	-0.094809026
120	0xbe5a8877	-0.2134112
121	0xbd5b35fd	-0.053518284
122	0x3d99e0c4	0.07513574
123	0xbe87249e	-0.26395124
124	0x3d01b019	0.03166208
125	0x3ecca1be	0.3996715
126	0x3e6970c8	0.22796929
127	0x3e857cae	0.26071686
128	0x3a0b07b8	0.00053035794
129	0xbe82d84d	-0.2555565
130	0xbeb5219a	-0.35377198
131	0x3e133550	0.14375806
132	0x3e237175	0.15961249
133	0xbc5e6c81	-0.013575674
134	0x3e53ee5b	0.20696394
135	0x3e2dc560	0.16969824
136	0x3e945067	0.28967592
137	0x3e14602b	0.1448981
138	0x3e4e5389	0.20149054
139	0xbea3de48	-0.32005525
140	0x3d93dd72	0.07219972
141	0x3ea9cfeb	0.3316644
142	0xbcfdc78f	-0.030978946
143	0x3e629e29	0.22130646
144	0xbe34d4b7	-0.1765927
145	0x3e6e4314	0.23267776
146	0x3e944d7f	0.28965375
147	0xbea42353	-0.320582
148	0xbd55e0f4	-0.052216485
149	0xbe152f57	-0.1456884
150	0xbe7ae608	-0.24501812
151	0x3e90a293	0.28249034
152	0xbd8e5170	-0.06949127
153	0x3b7d146b	0.0038616906
154	0xbe286f7a	-0.16448775
155	0x3e22bc27	0.15892087
156	0xbd95f9b3	-0.07323017
157	0x3e465870	0.19369674
158	0xbe6ee8bd	-0.2333097
159	0x3e787ef6	0.24267182
160	0xbd827a3a	-0.06370969
161	0xbdb0830d	-0.08618746
162	0x3c005268	0.007832147
163	0xbe418ce0	-0.18901396
164	0xbee58f23	-0.44835767
165	0xbe2dcc21	-0.169724
166	0x3e9c9183	0.30579767
167	0xbd271996	-0.040795885
168	0xbdd904b2	-0.10596599
169	0x3e5e0a68	0.21683657
170	0xbe2e18b6	-0.17001614
171	0xbd4fc265	-0.0507225
172	0x3e9ce8c5	0.3064634
173	0x3c3dee10	0.011592403
174	0x3e8a37cc	0.26995695
175	0xbedb0ab3	-0.427816
176	0xbe07b9b7	-0.13254438
177	0xbe463053	-0.19354372
178	0x3ec64d0b	0.38730654
179	0x3d82e55c	0.06391403
180	0x3d1768da	0.03696523
181	0xbdb245a1	-0.08704687
182	0xbe0e13c3	-0.13874726
183	0xbdb4f12d	-0.08835063
184	0xbe48f997	-0.19626461
185	0xbe7e4e97	-0.24834667
186	0x3d714bc5	0.05891015
187	0xbdc1426c	-0.09436497
188	0xbe7e7831	-0.24850537
189	0x3e852e86	0.26012057
190	0x3e01d99f	0.12680672
191	0x3e247030	0.16058421
192	0x3d0c97e6	0.03432455
193	0xbe99e954	-0.30060828
194	0xbe8b3f57	-0.27196762
195	0x3e2b7a80	0.16745949
196	0x3cfd67a9	0.030933218
197	0x3d01663e	0.031591646
198	0x3e5f2103	0.21789937
199	0x3dc13ac8	0.0943504
200	0x3e883b38	0.2660768
201	0xbdfe49ec	-0.12416443
202	0x3e07344b	0.13203542
203	0xbe4e8a90	-0.20170045
204	0x3dbbbb13	0.09166541
205	0x3eaea6b9	0.34111574
206	0xbc910309	-0.017701643
207	0x3e097646	0.13424024
208	0xbcdaf2de	-0.026727136
209	0x3e816d04	0.25278485
210	0x3d88bfb8	0.066771924
211	0xbe207df7	-0.15673052
212	0xbe917592	-0.28410012
213	0xbe303a0d	-0.17209645
214	0xbe481b30	-0.19541621
215	0x3e9e9efa	0.30980664
216	0xbe58e233	-0.21180038
217	0x3db92610	0.09040463
218	0xbe4ff6e2	-0.20309022
219	0x3e9ed7e9	0.310241
220	0xbeaf475b	-0.34234127
221	0x3de00f30	0.10940397
222	0xbe0aae4e	-0.13543054
223	0x3dbd0343	0.09229138
224	0x3c40d8c0	0.011770427
225	0x3dabbfca	0.0838619
226	0x3d895a24	0.06706646
227	0xbe481745	-0.19540127
228	0xbde815af	-0.11332261
229	0xbe8e186f	-0.27753016
230	0x3d84ef8d	0.06491003
231	0xbdca7784	-0.09886077
232	0xbdcba24b	-0.09943064
233	0x3e8a3e8e	0.2700085
234	0xbe1d4c13	-0.15361051
235	0x3c426fb0	0.011867449
236	0x3e75812c	0.23975056
237	0xbcba5aec	-0.022748433
238	0x3d70993b	0.058739882
239	0xbedc1ae1	-0.42989257
240	0xbd35111e	-0.044205777
241	0xbe23dc4b	-0.16002004
242	0x3dc9e777	0.098586015
243	0x3de5a330	0.11212766
244	0x3d4cf0d0	0.050034344
245	0x3df12042	0.11773731
246	0xbe563d4f	-0.20921825
247	0x3c73bec8	0.014877029
248	0xbe05e71a	-0.1307644
249	0xbdfdc39c	-0.12390825
250	0x3e42d572	0.19026735
251	0xbddb4ec6	-0.10708384
252	0xbdc00016	-0.093750164
253	0x3e1e426f	0.1545503
254	0x3def4432	0.11682929
255	0x3cd256a1	0.025676074

lstm.weight_hh_l1 f4 [256, 64]
0	0xbe36cd83	-0.17851834
1	0x3e573396	0.21015772
2	0xbe0cea30	-0.1376121
3	0xbdd1ff2d	-0.10253749
4	0x3b93bf41	0.004508883
5	0x3e1da87c	0.15396303
6	0xbe5addb3	-0.21373634
7	0x3d884dbc	0.06655452
8	0x3cc9b8e9	0.024624305
9	0x3d86dd1e	0.065851435
10	0xbdc166f9	-0.094434686
11	0xbca7d921	-0.020489277
12	0xbc2145ab	-0.00984327
13	0xbc4937b0	-0.012281343
14	0xbe6503ef	-0.22364782
15	0xbda006f8	-0.07813829
16	0x3e1c9b54	0.15293628
17	0x3e4fb34e	0.20283243
18	0xbe553dc7	-0.20824347
19	0xbdbfd0f7	-0.09366029
20	0xbd3bb642	-0.04582811
21	0x3e2940cf	0.16528629
22	0x3e30a997	0.17252193
23	0x3d4fcc8c	0.05073218
24	0x3deaa1ed	0.11456666
25	0x3e590a19	0.21195258
26	0x3ccebc12	0.025236163
27	0xbd86b0e8	-0.06576711
28	0xbd916f5b	-0.071013175
29	0x3e27b51e	0.16377684
30	0x3cfc8279	0.030823933
31	0x3e04615b	0.12927763
32	0xbce196e3	-0.027537769
33	0xbe3d5adb	-0.1849169
34	0xbe336927	-0.17520581
35	0xbe325ddf	-0.17418621
36	0x3e122c84	0.14274794
37	0xbc7c5748	-0.015401669
38	0xbda71c30	-0.08159673
39	0xbdf6885c	-0.12037727
40	0xbd0af367	-0.033923533
41	0x3d3bbcfa	0.04583452
42	0x3e48524d	0.19562645
43	0xbe3cd913	-0.18442182
44	0xbe0780e3	-0.1323276
45	0xbdbd6ea3	-0.09249618
46	0x3d7a2449	0.06106976
47	0x3d6b80d2	0.0574959
48	0xbdf4884e	-0.119400606
49	0xbd0354d4	-0.03206332
50	0xbe3016b2	-0.17196158
51	0xbd7ca5e4	-0.061681643
52	0x3e8002b4	0.25002062
53	0xbe02336e	-0.12714931
54	0x3d3adc48	0.045620233
55	0x3d51a899	0.051186178
56	0xbd9998ab	-0.07499822
57	0xbd6dde2d	-0.05807321
58	0x3c9d2837	0.019184215
59	0x3d53b8f0	0.051690042
60	0x3c4d02ec	0.012512904
61	0x3d8d2886	0.06892495
62	0x3e0305c3	0.12795167
63	0xbdfe44f1	-0.12415493
64	0x3a9b7cc6	0.0011862747
65	0x3e2118bc	0.15732092
66	0xbe78eebe	-0.24309823
67	0xbe46bed1	-0.19408728
68	0xbd998d79	-0.07497687
69	0x3e74bfef	0.23901342
70	0xbda53f8f	-0.080687635
71	0xbda160de	-0.07879804
72	0x3c94755f	0.018122373
73	0x3ca2b9c2	0.019863967
74	0xbdce96ae	-0.100873336
75	0xbcae5a2a	-0.021283228
76	0xbdab5648	-0.08366066
77	0x3e889b22	0.26680857
78	0xbdf2f90a	-0.11863907
79	0xbd000582	-0.031255253
80	0x3d9d54d6	0.07682197
81	0x3c9489fb	0.0181322
82	0xbdf5f0fb	-0.12008854
83	0x3c483661	0.012219996
84	0xbe0c4f7a	-0.13702193
85	0x3dbf377c	0.09336755
86	0xbc0cf6b9	-0.008603745
87	0x3c80b9a7	0.015713526
88	0xbd0fc155	-0.035096485
89	0x3d93f7d6	0.07225005
90	0xbddcaed4	-0.10775533
91	0x3d947b22	0.07250048
92	0xbe2d28bd	-0.16910072
93	0xbc88154d	-0.01661172
94	0xbe051b00	-0.12998581
95	0x3b0580d8	0.0020370986
96	0xbe132062	-0.14367822
97	0xbd279069	-0.040909205
98	0xbdf65ce4	-0.12029436
99	0xbd0144da	-0.031559803
100	0x3dd38be2	0.10329415
101	0x3d49cb37	0.049266066
102	0xbe2fa41e	-0.1715245
103	0xbe54bc68	-0.20774996
104	0xbd50fc9a	-0.05102215
105	0x3e16f37f	0.14741324
106	0x3e655d8d	0.22398968
107	0xbd775865	-0.060387034
108	0xbe0f1e97	-0.13976513
109	0xbe1aee3b	-0.1512994
110	0x3df7f83e	0.12107895
111	0x3de3f31e	0.11130355
112	0xbdfd3532	-0.12363662
113	0xbe5e11f5	-0.21686538
114	0xbda6b53a	-0.08140035
115	0x3d617751	0.05504543
116	0x3ea278e6	0.31732863
117	0xbe2828f3	-0.16421871
118	0x3db36d68	0.08761102
119	0x3d721d54	0.05911
120	0x3c79c1fe	0.015244005
121	0xbd912da5	-0.07088784
122	0x3d915a3b	0.07097288
123	0xbe04346f	-0.12910627
124	0x3e7df9b3	0.24802284
125	0x3e21f30d	0.15815373
126	0xbd612d22	-0.054974683
127	0x3d2e7e18	0.04260072
128	0xbe104d28	-0.14091933
129	0x3ca42355	0.020036379
130	0xbe3dbf88	-0.18530095
131	0xbda1d7d5	-0.07902495
132	0xbe5a9882	-0.2134724
133	0x3e038118	0.12842214
134	0xbe1e0b95	-0.15434106
135	0xbe26e0e9	-0.16296734
136	0x3dcd23b6	0.10016577
137	0x3c8e3d03	0.017363077
138	0x3e041594	0.12898856
139	0xbd5d4fd4	-0.05403121
140	0xbddf95c3	-0.10917237
141	0x3db7e227	0.08978682
142	0xbd8d6e38	-0.06905788
143	0xbe1b1e7e	-0.1514835
144	0x3e4ec405	0.20191963
145	0x3c5da4ed	0.013528091
146	0xbdd9189a	-0.106003955
147	0x3c4b484c	0.012407374
148	0xbe4a1d77	-0.19737802
149	0x3e4488c5	0.19192798
150	0x3da066fc	0.07832143
151	0x3b945298	0.0045264475
152	0x3cbbebb0	0.022939533
153	0x3d9e4bc1	0.07729293
154	0xbea25fee	-0.31713814
155	0x3cc17276	0.02361415
156	0xbe9461ee	-0.28980964
157	0x3e6527e4	0.22378498
158	0xbd5bebfe	-0.053691857
159	0x3d9bb194	0.0760223
160	0xbe39ecb6	-0.18156704
161	0xbe3e5545	-0.18587215
162	0xbdb14b0e	-0.08656894
163	0xbce7a439	-0.02827655
164	0x3e75d7e7	0.24008141
165	0x3d9cad5c	0.07650253
166	0xbe24425d	-0.1604094
167	0xbe5dbd5a	-0.21654263
168	0x3e15b835	0.1462105
169	0x3dff1c94	0.12456623
170	0x3c3abbc8	0.01139731
171	0xbe17456f	-0.1477258
172	0xbd88f064	-0.06686476
173	0xbe1d14cb	-0.15339963
174	0x3e81ca28	0.25349545
175	0x3e4f4aa0	0.20243311
176	0xbe5968e4	-0.21231419
177	0xbdba3cd8	-0.09093636
178	0xbcf52725	-0.029925892
179	0xbdd742d9	-0.10510797
180	0x3e80b79f	0.25140092
181	0x3cb452a0	0.022012055
182	0x3d8cd634	0.068767935
183	0x3cf3d4ee	0.029764619
184	0xbe5e5ef7	-0.21715914
185	0x3d137cb9	0.036007617
186	0x3e11c03e	0.14233491
187	0xbe468a2c	-0.19388646
188	0x3e092e26	0.1339651
189	0x3e1d7916	0.15378222
190	0x3e0e66a1	0.13906337
191	0xbca0df44	-0.019637711
192	0xbe6590ff	-0.22418593
193	0x3dc88884	0.09791663
194	0xbc14ff98	-0.009094141
195	0xbe1d128d	-0.15339108
196	0xbceb1863	-0.028698152
197	0x3e4e38fd	0.20138927
198	0xbde5f807	-0.11228948
199	0x3e125a38	0.14292228
200	0x3e204d45	0.15654476
201	0x3dee401a	0.1163332
202	0x3d1e1572	0.03859467
203	0xbb918370	-0.0044407174
204	0xbe02e5d0	-0.12782979
205	0x3d563a30	0.052301586
206	0xbe07f045	-0.1327525
207	0xbdb3f507	-0.0878697
208	0xbd57dbaf	-0.05269974
209	0x3e1a0018	0.15039098
210	0xbddd67b1	-0.10810793
211	0xbd94ffab	-0.07275327
212	0xbe0bf08a	-0.13665977
213	0x3c1bdf31	0.009513662
214	0x3e019cc7	0.12657462
215	0xbdfa841a	-0.122322276
216	0x3e2ce390	0.16883683
217	0x3d785bfa	0.06063459
218	0xbd53662b	-0.051611107
219	0x3dbeb654	0.0931212
220	0xbe04b78c	-0.12960643
221	0x3e4f081d	0.20217939
222	0xbd72f827	-0.059318688
223	0x3d925fbd	0.07147167
224	0xbe4f35da	-0.20235386
225	0xbd941e78	-0.07232374
226	0xbd9b3a33	-0.0757946
227	0x3d5649c1	0.05231643
228	0x3e156283	0.1458836
229	0x3e6f32bc	0.23359197
230	0xbe5d2cb9	-0.21599092
231	0xbe03d33d	-0.1287355
232	0x3d2f90a0	0.042862535
233	0x3e20b876	0.15695366
234	0x3e8ad6a6	0.2711689
235	0xbd999056	-0.07498233
236	0xbcfabb09	-0.030606763
237	0xbdfc3bd1	-0.123160966
238	0x3d1c8c02	0.03821946
239	0x3e10999d	0.14121099
240	0xbe044504	-0.12916952
241	0xbd81b331	-0.06333006
242	0xbea795b8	-0.32731414
243	0xbdb12d3a	-0.086512044
244	0x3e83a456	0.25711316
245	0xbdb8943c	-0.090126485
246	0x3c1936dd	0.009351459
247	0x3c1257c5	0.008932059
248	0x3d4cd8a4	0.050011292
249	0x3d5a51a5	0.05330052
250	0x3e53aaee	0.20670673
251	0x3d13ef8e	0.03611713
252	0x3e014a53	0.12626009
253	0x3dbfa902	0.093584076
254	0x3d866c89	0.0656367
255	0xbdb5c8e7	-0.0887621

lstm.bias_ih_l1 f4 [256]
0	0x3e92bac5	0.2865812
1	0x3dccc1fb	0.09997936
2	0x3e2ae787	0.16689883
3	0x3e774563	0.24147563
4	0x3e67dd7d	0.22643085
5	0x3e4aeac9	0.19816126
6	0x3d189f8f	0.037261542
7	0x3bcc1af6	0.0062288
8	0xbcdd2edb	-0.026999881
9	0x3e7256cf	0.23665927
10	0x3e4ee45b	0.20204298
11	0x3e26194e	0.1622059
12	0x3ee3bfae	0.44482177
13	0x3e1d2233	0.15345077
14	0x3d81ad0f	0.063318364
15	0x3e6a4f09	0.22881712
16	0x3df7c6dd	0.12098477
17	0x3e855b91	0.26046422
18	0x3e9065f6	0.2820279
19	0x3e331bb1	0.17491032
20	0x3e660ee5	0.2246662
21	0x3e5f09ed	0.2178113
22	0x3dc4af7e	0.09603785
23	0x3daedfc0	0.08538771
24	0x3e287e3c	0.16454405
25	0x3e777d38	0.24168861
26	0x3e8fdeeb	0.2809976
27	0x3d7868ae	0.060646705
28	0x3e913aaa	0.2836507
29	0x3e37b491	0.17939974
30	0x3da7fa6d	0.08202062
31	0x3e7773d5	0.2416528
32	0x3dbd30f5	0.092378534
33	0x3e0b3e4e	0.13597986
34	0x3dbfd6f0	0.09367168
35	0x3e104b19	0.14091147
36	0x3ecdca32	0.40193325
37	0x3e37eb50	0.17960858
38	0x3e8b1ffe	0.27172846
39	0x3e389fe4	0.18029743
40	0x3e5421f4	0.20716077
41	0x3e81c988	0.2534907
42	0x3e7f2072	0.2491472
43	0x3e8c2748	0.2737372
44	0xbd8be9b1	-0.068316825
45	0x3e1fff39	0.15624703
46	0x3da9ec3c	0.08297011
47	0x3e2ae0d8	0.16687334
48	0x3e3b8bcb	0.18315046
49	0x3dad23d2	0.08454098
50	0x3dd9199d	0.106005885
51	0x3e672141	0.22571279
52	0x3e2b5a92	0.16733769
53	0x3df5cd2c	0.12002024
54	0x3da0915a	0.078402236
55	0x3d9e6bb1	0.07735384
56	0x3e513345	0.20429714
57	0x3e400834	0.18753129
58	0x3e770e38	0.24126518
59	0x3da0c841	0.078506954
60	0x3e39b906	0.18136987
61	0x3e29badf	0.16575192
62	0x3df0e5a2	0.11762549
63	0x3e03a303	0.12855153
64	0x3e948b37	0.29012462
65	0x3e020239	0.1269616
66	0x3d80f945	0.062975444
67	0x3e1feb7e	0.15617177
68	0x3e4bef43	0.1991549
69	0x3e894bbf	0.26815602
70	0x3e13c16e	0.14429256
71	0xbdb60fbd	-0.088897206
72	0x3e61a103	0.22034077
73	0x3df1020b	0.11767968
74	0xbdc1280e	-0.09431468
75	0x3e559dd9	0.20860995
76	0x3e574ea9	0.210261
77	0x3e63f974	0.22263128
78	0x3d8ed743	0.06974652
79	0x3e9640da	0.29346353
80	0x3c84f635	0.016230682
81	0x3e6db1b6	0.23212323
82	0x3e4a50a5	0.19757326
83	0x3e84454d	0.25834122
84	0x3e40c25e	0.18824145
85	0x3d800a3a	0.062519506
86	0x3e94bfb0	0.29052496
87	0x3c84978b	0.016185543
88	0x3d967848	0.073471606
89	0x3de0f1ba	0.10983606
90	0xbe57297f	-0.21011923
91	0x3e82b7dc	0.255309
92	0xbd8eb78b	-0.06968602
93	0x3e0c1f4b	0.13683812
94	0x3ddfbbc4	0.10924485
95	0x3e56c2d5	0.2097276
96	0x3ea08521	0.3135157
97	0x3d61165a	0.054952957
98	0x3c6da825	0.014505421
99	0x3df6d59c	0.120524615
100	0x3e818f98	0.25304866
101	0x3ea96fe6	0.33093184
102	0x3e06f452	0.13179138
103	0x3dfbb293	0.1228992
104	0x3d96a9a0	0.07356572
105	0x3eadf192	0.33973366
106	0x3d8858d3	0.06657567
107	0x3e6f68f1	0.23379876
108	0x3d2b59a3	0.04183353
109	0x3e08e30d	0.13367863
110	0x3ea09ae7	0.3136818
111	0x3d9431a2	0.07236029
112	0x3e542548	0.20717347
113	0x3e636b5c	0.22208923
114	0x3e6196d8	0.22030199
115	0x3db2a77b	0.087233506
116	0x3e6a3719	0.2287258
117	0x3e98735b	0.2977551
118	0x3d8eeffb	0.069793664
119	0x3e4a0c53	0.19731264
120	0xbe3ab8aa	-0.18234506
121	0x3e405f0c	0.18786258
122	0x3e7774f7	0.24165712
123	0xbe33b369	-0.17548908
124	0x3dc14f73	0.09438982
125	0x3d8f51c6	0.06998019
126	0x3e1fef5c	0.15618652
127	0x3e533207	0.20624553
128	0xbe13ec40	-0.14445591
129	0x3df9d7c1	0.12199355
130	0xbc9d1ba0	-0.019178212
131	0xbcd6d299	-0.026223468
132	0xbcff6293	-0.031174934
133	0x3e20afca	0.15692058
134	0xbe162d3a	-0.1466569
135	0xba44bf75	-0.0007505336
136	0xbda3dc5d	-0.08001015
137	0x3d3ba278	0.04580924
138	0xbde54fab	-0.11196836
139	0x3e0fed59	0.14055385
140	0xbd6ffdf6	-0.058591805
141	0x3d89956a	0.067179516
142	0xbe066e9e	-0.13128135
143	0x3c4331fe	0.011913775
144	0x3e0de360	0.13856268
145	0xbcc90724	-0.024539538
146	0xbe156b62	-0.14591745
147	0xbe334919	-0.17508353
148	0xbd115f50	-0.035491288
149	0xbd1bb3d7	-0.038013306
150	0x3d6ba376	0.057528935
151	0xbd69365a	-0.0569366
152	0xbd9229cb	-0.071368776
153	0x3e0b5e7c	0.13610262
154	0x3dbaa5ab	0.0911363
155	0x3df52ffb	0.11972042
156	0x3db9e674	0.090771586
157	0xbd7c2e0d	-0.061567355
158	0xbe1b68d5	-0.15176709
159	0x3d998b89	0.07497317
160	0xbdb045f3	-0.08607092
161	0xbd922f82	-0.07137968
162	0xbd8704db	-0.06592723
163	0x3d6ca510	0.057774603
164	0x3cad556e	0.0211589
165	0x3de9a430	0.114082694
166	0xbdb109df	-0.08644461
167	0xbe3cde1a	-0.184441
168	0x3d89e2ff	0.06732749
169	0x3e2f13e1	0.17097427
170	0x3b16d922	0.0023017605
171	0xbe45ff7a	-0.19335738
172	0xbdc2ee3c	-0.09518096
173	0x3d3d695c	0.046243057
174	0x3dbc65ca	0.09199102
175	0xbdb8bcfc	-0.09020421
176	0xbe19c7c7	-0.15017615
177	0xbe485ffd	-0.19567867
178	0xbd3e2ea8	-0.046431214
179	0x3d8c4eb5	0.0685095
180	0x3d44e3f5	0.04806896
181	0x3aa796d0	0.0012786034
182	0x3d384e9a	0.044996835
183	0x3e2cf644	0.16890818
184	0x3ccdaa97	0.025105758
185	0x3d0ae39d	0.033908475
186	0x3df73ed1	0.12072528
187	0xbd1136d5	-0.035452683
188	0x3e283a73	0.16428547
189	0x3d2c0275	0.04199453
190	0xbc9cf0dc	-0.01915782
191	0xbdae8434	-0.085213095
192	0x3db3df39	0.08782811
193	0x3e027685	0.12740524
194	0x3d94d831	0.07267798
195	0xbdd5e30a	-0.10443695
196	0x3e33a84c	0.17544669
197	0xbd2e4d97	-0.042554464
198	0x3e82ba5a	0.255328
199	0x3e2c253b	0.16811077
200	0xbde165d6	-0.11005752
201	0x3c77d720	0.015126973
202	0x3e06a13d	0.13147445
203	0x3d5f27a2	0.054481156
204	0xbc8740aa	-0.016510326
205	0x3d22b713	0.039725374
206	0x3e42be53	0.19017915
207	0xbddc0f98	-0.10745162
208	0xbdcf2cd0	-0.10115969
209	0x3e1c6340	0.15272236
210	0x3da94c1c	0.0826647
211	0xba6f8de2	-0.00091382687
212	0x3dd09d2b	0.101862274
213	0x3da76694	0.08173862
214	0xbc5b9a27	-0.013403452
215	0xbd56f2bf	-0.052477594
216	0xbdf6b09d	-0.12045405
217	0xbd517421	-0.05113614
218	0x3e51a9e5	0.20474966
219	0xbd98f064	-0.07467726
220	0x3d7595b6	0.05995723
221	0xbc8a12ea	-0.016854722
222	0x3d84db64	0.06487158
223	0x3cddfaea	0.027097184
224	0x3db22e4c	0.08700237
225	0xbd0fe45c	-0.03512989
226	0xbc98f0b1	-0.018669458
227	0xbc9a0a47	-0.018803729
228	0x3dd36c3c	0.103233784
229	0x3d2a9750	0.04164821
230	0x3e08358f	0.13301681
231	0x3dca3012	0.0987245
232	0xbdd9e063	-0.106385015
233	0x3d6dee47	0.058088567
234	0x3cb2aed2	0.021811876
235	0x3d119f04	0.03555204
236	0x3e01e1bb	0.12683766
237	0x3b560ef9	0.0032662733
238	0xbe1cc7e1	-0.15310623
239	0xbd8b7cee	-0.06810938
240	0xbb464276	-0.0030252016
241	0x3d1711a5	0.03688206
242	0x3c261134	0.0101359375
243	0x3cbac4cd	0.02279892
244	0xbd6cedb2	-0.05784387
245	0x3d4329d9	0.04764733
246	0x3da5669c	0.08076212
247	0x3b662ea7	0.0035123022
248	0x3e1ddfea	0.15417448
249	0xbd7a1905	-0.061059017
250	0xbdb36015	-0.087585606
251	0x3dc52cd3	0.0962769
252	0x3d944561	0.072397955
253	0x3de7cdf4	0.11318579
254	0x3d6280d8	0.055298656
255	0xbd4d76a5	-0.050161976
